lin_pk.pth (torch, 1255 bytes, 2 tensors)

weight f4 [3, 20]
000000 b9 9c 63 3f 0f cb 7a 3e b1 f8 c0 be 45 c4 c3 3f
       0.88911015 0.24491523 -0.37689736 1.5294272
000010 94 5b 91 3f 2c 64 1a 3e c2 9f 60 3e ae 61 8c be
       1.1356072 0.15077275 0.21935943 -0.27418274
000020 e0 ec 92 bf 0c f2 ff 3f 9e 63 80 be a6 5e c1 3f
       -1.1478539 1.9995742 -0.25076002 1.510701
000030 31 82 69 bf 7d da 16 3f 7a 88 47 3f 41 5c 17 3f
       -0.9121428 0.58927137 0.7794262 0.59125143
000040 13 2f ad 3f 6f c5 90 3e 0f a0 fe bd 4b c7 2b bf
       1.3529991 0.2827563 -0.124328725 -0.6710097
000050 b4 8d 3a bf 1e c3 32 3f 81 19 07 40 af b1 9b be
       -0.7287247 0.69828975 2.1109316 -0.30409
000060 4b 4b 99 bf 11 4c 49 bf 46 9c 11 3f 2a 2d c0 3e
       -1.1976103 -0.78631693 0.5687908 0.37534457
000070 bc 8e bf 3f 34 4f f3 bf 5c be 7f 3e 70 c3 3a c0
       1.4965434 -1.9008546 0.2497496 -2.9181786
000080 fc fc 85 3f 79 17 87 bf b4 f7 4f bf bb 95 66 bf
       1.046783 -1.0554038 -0.8123734 -0.9007222
000090 b1 d3 cd bf 71 c8 05 bf fe 42 24 bf 87 69 71 3f
       -1.6080228 -0.52258974 -0.6416472 0.94301647
0000a0 4e f3 d8 3d 5f c7 78 bf d5 29 f6 bf 78 27 94 bc
       0.10593282 -0.97179216 -1.9231516 -0.018085226
0000b0 1a 47 98 bd a5 fb ae 3d a4 8a e4 be d0 ed e3 bf
       -0.074354365 0.08544091 -0.44637024 -1.780695
0000c0 64 b2 b8 be 32 3c 1d 3f 97 65 4e bf aa 2a 0e 40
       -0.360736 0.61419976 -0.80623764 2.221354
0000d0 b1 04 21 bf da fa 83 3e 67 af 97 3f 9d 10 01 40
       -0.62897784 0.25777322 1.1850404 2.016639
0000e0 46 09 0e 40 18 85 9f be 42 df bf 3e 14 ea 98 bf
       2.219316 -0.3115623 0.3747502 -1.1946435

bias f4 [3]
000000 d1 3a 7d bd 14 e1 20 be e3 a6 64 3f
       -0.06182367 -0.1571086 0.8931715
