lstm_pk.pth (torch, 9695 bytes, 4 tensors)

weight_ih_l0 f4 [80, 4]
0.1994673 0.2217297 0.7556223 0.2868589 -0.38394147 0.4772046 0.09875788 -0.36187473
0.37445673 0.6651901 -0.19063455 -0.32482198 0.8872939 -0.7819204 1.0523057 1.9674847
0.017585536 -0.29726648 0.16010483 0.028212408 0.24390443 0.54339284 -1.9174365 -2.7356641
-0.5818879 0.10217652 0.16303831 -0.06534755 0.088099144 0.13188545 0.47910044 0.4897033
1.4995414 0.47249684 -0.16569002 -0.0903367 1.4739305 0.013607907 0.072229 -0.16164255
-0.28966898 -0.2962446 0.34687793 0.20060678 -0.07121746 -0.49136484 0.15511613 0.3468182
0.24751055 -0.13130565 0.14335997 0.08246676 -0.4779905 0.06929136 0.32554275 -0.10690911
0.2669324 0.020390114 -0.2500593 0.32186672 -0.35644132 -0.02973115 0.023238001 -0.0264239
0.31860977 -0.12585756 -0.5268355 0.63294184 0.20975704 0.21105595 -0.29385382 0.110523224
-2.0866349 0.20774567 -0.7749218 -1.2559358 -0.2060305 0.20279175 -0.7384776 0.34991822
4.424881 -1.2373893 1.3806127 4.904594 -0.08749507 -0.054476336 -0.1598 0.17292863
-0.18585004 0.49695754 -0.0025419327 -0.55513173 -0.47857177 0.1110052 1.0451131 -0.44284496
0.13591743 0.10948401 0.15178363 -0.17993525 0.3173818 -0.02457472 -0.38532475 0.42072636
-1.2248703 0.119044 1.6402581 -0.8177762 -0.13672316 0.074144915 0.05658174 0.3093772
-1.0494143 0.047682814 0.46433774 -0.35052174 0.90547293 -0.5866154 0.65745795 0.42242995
0.14975688 0.15125282 -0.24459885 0.17444317 0.2863034 0.3014413 -0.38634396 -0.31042022
0.21049649 -0.42466807 0.55217445 0.208016 -0.052490253 0.16915566 0.3179629 -0.34390604
0.0475596 -0.1756287 0.09439212 0.05770351 2.469149 -0.7988334 2.0014963 2.898611
-0.23413344 -0.00096452783 0.65043044 -0.5741949 -0.007231347 0.23993431 0.5312991 0.95268214
0.6440856 -0.22810571 -1.6620936 -3.0321555 -1.9413587 0.358112 -0.9059302 0.2577522
-0.21842405 -0.002296184 -0.08867794 0.09082944 0.8448082 -0.080632105 -3.6532252 -0.94092345
0.18273735 0.04659505 0.23890261 0.03024734 1.8938594 -0.37606227 0.15769975 0.43136442
0.1699363 -0.014964819 -0.13099016 -0.04395352 -0.35004643 -0.026439315 0.11948686 -0.2792216
0.06458854 0.05093471 0.27826965 -0.28141975 -0.16349626 -0.16390984 1.0482631 2.5763443
0.0838544 -0.21386933 0.17878665 -0.025766848 -0.152361 -0.40225893 0.09199872 0.25717896
0.07846473 -0.24071361 0.19858642 -0.05077685 -0.047582492 -0.20660515 -0.011632015 -0.16870698
0.03132222 -0.034604855 -0.07345497 0.088284075 0.02018454 0.045334257 0.14996365 0.07113174
-0.029975755 -0.2655243 -0.4393701 0.0003568043 -1.3519664 -0.13739543 0.7294129 0.093631774
0.3235195 0.1323812 -0.0018887777 -0.45202306 -0.11475837 -0.08417877 -0.3477907 -0.1750797
-0.27494252 0.06183228 0.45371094 0.10220793 0.26976737 0.08148806 -0.08546873 0.95381594
-0.6115873 0.060157325 -0.041192334 0.05979164 -0.056289785 -0.08844318 0.10528015 0.094228834
-0.07006035 -0.018256687 -0.07229277 0.14406049 -0.036899168 -0.041795574 -0.035592794 0.013696258
00000000: 2841 4c3e 1c0d 633e 7770 413f 2bdf 923e
00000010: fa93 c4be 2954 f43e 9241 ca3d a547 b9be
00000020: cbb8 bf3e e649 2a3f b435 43be 114f a6be
00000030: b125 633f ef2b 48bf f4b1 863f 8ad6 fb3f
00000040: 8b0f 903c 5033 98be 85f2 233e b51d e73c
00000050: 15c2 793e cb1b 0b3f 8f6e f5bf 1f15 2fc0
00000060: 9bf6 14bf ec41 d13d 84f3 263e f0d4 85bd
00000070: 536d b43d fb0c 073e a74c f53e 64ba fa3e
00000080: f9f0 bf3f 1beb f13e a5aa 29be 7302 b9bd
00000090: c1a9 bc3f b3f3 5e3c ccec 933d a085 25be
000000a0: 7e4f 94be 5fad 97be fc99 b13e dd6b 4d3e
000000b0: 76da 91bd 2c94 fbbe c3d6 1e3e 2892 b13e
000000c0: 6873 7d3e fd74 06be f5cc 123e 55e4 a83d
000000d0: 2cbb f4be a1e8 8d3d 8aad a63e 2af3 dabd
000000e0: 5dab 883e 2b09 a73c c607 80be b7cb a43e
000000f0: 7a7f b6be be8e f3bc 9f5d be3c ef76 d8bc
00000100: d220 a33e cee0 00be b1de 06bf 7a08 223f
00000110: 8dca 563e 0d1f 583e 0274 96be 005a e23d
00000120: 6d8b 05c0 48bb 543e 4661 46bf 81c2 a0bf
00000130: a9f9 52be a4a8 4f3e de0c 3dbf 7b28 b33e
00000140: a098 8d40 c662 9ebf ebb7 b03f 6ff2 9c40
00000150: 9e30 b3bd 9422 5fbd 9ca2 23be 3414 313e
00000160: 794f 3ebe 3871 fe3e 8e96 26bb 1d1d 0ebf
00000170: 5c07 f5be b256 e33d 44c6 853f 93bc e2be
00000180: f02d 0b3e 2739 e03d 2b6d 1b3e f240 38be
00000190: de7f a23e ec50 c9bc 4949 c5be 7269 d73e
000001a0: 8dc8 9cbf 57cd f33d faf3 d13f c859 51bf
000001b0: 2801 0cbe 4ad9 973d 41c2 673d b066 9e3e
000001c0: 3553 86bf 0e4f 433d adbd ed3e 9677 b3be
000001d0: 13cd 673f 6d2c 16bf 2a4f 283f bd48 d83e
000001e0: de59 193e 05e2 1a3e 1f78 7abe 3ba1 323e
000001f0: 5c96 923e 8456 9a3e e0ce c5be 66ef 9ebe
00000200: 648c 573e 186e d9be 4e5b 0d3f 2502 553e
00000210: 0500 57bd 2437 2d3e 09cc a23e 7414 b0be
00000220: dbcd 423d 03d8 33be a850 c13d 845a 6c3d
00000230: 8a06 1e40 5880 4cbf 8418 0040 d882 3940
00000240: adc0 6fbe 5ed8 7cba 9c82 263f 70fe 12bf
00000250: eff4 ecbb 57b1 753e 3803 083f fae2 733f
00000260: cbe2 243f 8b94 69be 7cbf d4bf d60e 42c0
00000270: 717e f8bf 755a b73e 0beb 67bf 19f8 833e
00000280: 8eaa 5fbe 937b 16bb c89c b5bd c904 ba3d
00000290: 5a45 583f 7222 a5bd 71ce 69c0 5ce0 70bf
000002a0: 801f 3b3e 73da 3e3d e3a2 743e 45c9 f73c
000002b0: fc69 f23f 3c8b c0be 0b7c 213e ccdb dc3e
000002c0: c803 2e3e 002f 75bc 4922 06be 9b08 34bd
000002d0: 4939 b3be 4397 d8bc 87b5 f43d 22f6 8ebe
000002e0: ff46 843d eaa0 503d 5c79 8e3e 4016 90be
000002f0: 906b 27be fbd7 27be 7c2d 863f d3e2 2440
00000300: dbbb ab3d 9000 5bbe d913 373e ff14 d3bc
00000310: 8604 1cbe e2f4 cdbe d369 bc3d f6ac 833e
00000320: 1eb2 a03d a17d 76be 3d5a 4b3e 63fb 4fbd
00000330: dce5 42bd 4d90 53be 3594 3ebc 86c1 2cbe
00000340: ba4b 003d d2bd 0dbd 8f6f 96bd 48ce b43d
00000350: 0c5a a53c 6ab0 393d 1290 193e 85ad 913d
00000360: b78f f5bc cdf2 87be 1ef5 e0be 7611 bb39
00000370: 3c0d adbf 63b1 0cbe ceba 3a3f 04c2 bf3d
00000380: 59a4 a53e f08e 073e dd90 f7ba 916f e7be
00000390: 7006 ebbd eb65 acbd 9f11 b2be 1848 33be
000003a0: 44c5 8cbe d843 7d3d cd4c e83e 6452 d13d
000003b0: f31e 8a3e 36e3 a63d 3b0a afbd 482d 743f
000003c0: fc90 1cbf 8767 763d 4bb9 28bd 14e8 743d
000003d0: 1e90 66bd b321 b5bd 1f9d d73d 0cfb c03d
000003e0: cd7b 8fbd 0c8f 95bc 3b0e 94bd 9884 133e
000003f0: 9523 17bd d631 2bbd c0c9 11bd 4566 603c

weight_hh_l0 f4 [80, 20]
0.16373828 0.34814635 -1.3529363 0.024052782 -0.07203479 -0.31418175 -1.3350626 0.088738084
-0.4445619 -0.67924124 -0.052156 -0.13718648 -0.075584024 1.6847966 -0.048776615 -2.3818676
0.3265129 -1.8643546 -1.4422747 0.31272808 -0.08139423 0.7501142 0.5066287 -2.4468122
1.7745793 -0.030013269 -1.0352708 0.8127921 0.95315343 0.19696914 0.8844515 -0.41225362
-2.5075214 0.5754198 1.6263062 0.5330683 0.1793682 -0.36486116 -0.18422158 0.4403667
-1.3795397 -0.336667 0.07370818 -1.0467278 -0.49622506 -0.14097126 -0.12626877 -0.11875863
-1.1562594 1.9289888 0.83626264 -1.7262968 -0.64250994 0.023999533 1.138009 -0.9946167
-0.1376581 0.09656961 -0.08588759 -0.36446968 0.97803307 1.4860755 5.412621 -3.629954
0.17712231 -0.20758088 0.08314197 3.3229682 1.3174249 -1.246838 2.3662698 1.7137529
-1.0126064 0.59804165 -4.698114 4.8348413 -4.063695 -1.6402935 -0.15010868 -0.6663304
0.26116493 -0.085907444 -0.050921384 -0.4623424 0.98723376 0.10890562 0.13681193 -0.21216051
-0.25440004 0.56343514 1.0238425 0.20283563 -0.05188055 -0.34017903 0.056612052 0.78752697
0.020167802 0.048120283 0.09815098 -0.027748002 2.5093756 0.020218717 0.47974122 0.6863459
0.11709429 -2.8492906 1.2379928 1.0403208 1.8019357 -0.09688083 0.038975365 0.6794095
0.549171 -2.556092 1.9288948 -2.282828 -0.16002995 2.6387706 1.019535 -1.71971
1.1070683 -2.16368 1.6015016 -2.147293 -0.16640557 -0.41566274 -0.9450394 3.3297846
1.0899814 0.34384704 -2.4308624 -1.5363824 -2.662585 -1.341756 1.5304382 2.4424126
-1.1348757 1.7305067 1.4540609 3.1101065 0.2792851 -0.081983924 -0.49898168 -0.16567919
-0.090960905 0.56509656 0.22589323 0.6481314 0.35998738 0.54211456 0.19432218 0.19443722
0.67780375 -0.1526448 0.4172977 0.083134204 0.205301 0.037804224 -1.3388323 0.5543741
0.71126026 -0.2689881 0.14060874 -0.2825702 0.3597539 0.054982334 0.14578255 -3.4971936
1.5397078 0.35582823 -1.3258814 2.9672825 -1.4611609 -1.6432251 -2.5559297 -2.641833
-0.0220804 0.16620359 0.055237643 0.5187341 1.0239929 -0.9892732 -2.220689 1.4354212
0.21023583 2.1434927 -1.6262244 0.08644672 0.3480891 -1.686379 0.47719702 0.9835172
-4.0654287 -0.60621893 -2.029476 1.381123 0.04076426 1.7416104 -0.048425425 -1.147782
-2.9979084 -0.24346757 0.07691402 1.5974054 -0.012353168 -0.17693056 -1.1867225 0.65222555
-0.41953397 3.480303 -2.122102 -0.14113796 -1.0356859 0.13398796 1.311482 0.05946162
-0.063710034 1.0997535 0.175511 -0.2663526 1.3689458 0.2255128 -1.4991444 -2.0749118
-0.105132446 -0.024462946 0.7937801 -1.3127009 1.0511519 1.2477086 -0.6732909 -0.5575872
1.0070581 -1.2241338 -0.5788754 -1.1144688 -0.12622516 0.5078244 0.13190976 2.022933
2.1323674 -1.2353712 2.1547039 2.3212545 -0.059779275 0.117279425 -1.7467769 0.18579316
-0.0545783 -0.664483 0.7792872 -0.6164361 1.0972412 0.12687244 0.4809075 1.027115
00000000: 02ab 273e 3d40 b23e 042d adbf 570a c53c
00000010: fa86 93bd 6edc a0be 55e3 aabf 50bc b53d
00000020: 9e9d e3be c1e2 2dbf 88a1 55bd 9d7a 0cbe
00000030: cccb 9abd 6aa7 d73f fdc9 47bd 8570 18c0
00000040: b32c a73e 2ca3 eebf 759c b8bf e51d a03e
00000050: 05b2 a6bd 7c07 403f 6bb2 013f 9298 1cc0
00000060: 6a25 e33f 63de f5bc c183 84bf 2513 503f
00000070: dd01 743f 47b2 493e 6a6b 623f e812 d3be
00000080: 3b7b 20c0 b64e 133f cd2a d03f 2a77 083f
00000090: 4cac 373e 15cf babe 95a4 3cbe be77 e13e
000000a0: c294 b0bf 9e5f acbe 50f4 963d 2dfb 85bf
000000b0: 3611 febe c55a 10be 9a4c 01be b937 f3bd
000000c0: 4f00 94bf 1be9 f63f 4f15 563f 4bf7 dcbf
000000d0: 887b 24bf ab9a c43c 47aa 913f 339f 7ebf
000000e0: 3ff6 0cbe 4ac6 c53d d5e5 afbd c59b babe
000000f0: 6060 7a3f b937 be3f 3134 ad40 2b51 68c0
00000100: 8d5f 353e 1590 54be 5646 aa3d 83ab 5440
00000110: 61a1 a83f 6398 9fbf f770 1740 415c db3f
00000120: 169d 81bf 4219 193f f356 96c0 05b7 9a40
00000130: ca09 82c0 23f5 d1bf 17b6 19be a194 2abf
00000140: 69b7 853e 3ef0 afbd f192 50bd 25b8 ecbe
00000150: 5abb 7c3f e909 df3d 6d18 0c3e 9b40 59be
00000160: b940 82be 493d 103f 450d 833f 25b4 4f3e
00000170: b380 54bd f22b aebe 0ae2 673d 5e9b 493f
00000180: f236 a53c c619 453d 6203 c93d c74f e3bc
00000190: 9c99 2040 b9a1 a53c a4a0 f53e 5db4 2f3f
000001a0: 22cf ef3d c75a 36c0 8c76 9e3f 3b29 853f
000001b0: d4a5 e63f 7569 c6bd a2a4 1f3d c8ed 2d3f
000001c0: 7896 0c3f 0397 23c0 06e6 f63f db19 12c0
000001d0: e4de 23be 9ee1 2840 1f80 823f 751f dcbf
000001e0: 6ab4 8d3f bc79 0ac0 01fe cc3f 406d 09c0
000001f0: 3966 2abe bfd1 d4be 1aee 71bf 311b 5540
00000200: 8384 8b3f b80c b03e 4093 1bc0 2ea8 c4bf
00000210: cb67 2ac0 a9be abbf 66e5 c33f 7d50 1c40
00000220: 9b43 91bf 3e81 dd3f ab1e ba3f fc0b 4740
00000230: 75fe 8e3e 30e7 a7bd 877a ffbe cea7 29be
00000240: b649 babd 2baa 103f 8e50 673e f0eb 253f
00000250: 4450 b83e 05c8 0a3f 65fc 463e 8d1a 473e
00000260: 8c84 2d3f eb4e 1cbe 0ba8 d53e 4442 aa3d
00000270: 6d3a 523e 9ad8 1a3d db5e abbf 76eb 0d3f
00000280: 2715 363f cfb8 89be bdfb 0f3e 0bad 90be
00000290: aa31 b83e 2835 613d 0548 153e 05d2 5fc0
000002a0: 2515 c53f 1e2f b63e 7bb6 a9bf f5e7 3d40
000002b0: 5207 bbbf 3355 d2bf 5a94 23c0 cb13 29c0
000002c0: f4e1 b4bc 4631 2a3e de40 623d c2cb 043f
000002d0: 3312 833f 0241 7dbf c51f 0ec0 e2bb b73f
000002e0: 1048 573e fc2e 0940 1f28 d0bf fa0a b13d
000002f0: bc38 b23e 44db d7bf 2b53 f43e c9c7 7b3f
00000300: fe17 82c0 2a31 1bbf efe2 01c0 a3c8 b03f
00000310: 6df8 263d 17ed de3f bd59 46bd 85ea 92bf
00000320: bbdd 3fc0 904f 79be 1985 9d3d c877 cc3f
00000330: f164 4abc 492d 35be 86e6 97bf 41f8 263f
00000340: 28cd d6be 49bd 5e40 85d0 07c0 7886 10be
00000350: 5b91 84bf 2434 093e a4de a73f 078e 733d
00000360: 687a 82bd b9c4 8c3f 28b9 333e 5e5f 88be
00000370: 9e39 af3f d4ec 663e f7e3 bfbf 5bcb 04c0
00000380: ae4f d7bd 8466 c8bc 2c35 4b3f 9506 a8bf
00000390: 258c 863f eab4 9f3f cb5c 2cbf 09be 0ebf
000003a0: 48e7 803f 6bb0 9cbf 2e31 14bf eaa6 8ebf
000003b0: 2b41 01be c800 023f 5a13 073e bc77 0140
000003c0: b578 0840 a520 9ebf abe6 0940 6f8f 1440
000003d0: 1ddb 74bd 3230 f03d 6396 dfbf 9040 3e3e
000003e0: 7f8d 5fbd 8f1b 2abf 5e7f 473f c2ce 1dbf
000003f0: 6672 8c3f d9ea 013e 8239 f63e 8178 833f

bias_ih_l0 f4 [80]
-0.0958701 -0.48850542 0.45141497 -1.1776711 -0.23648532 -0.33549812 -0.43599436 0.049251158
-0.08801068 0.7343046 -0.098395124 0.013751342 0.03954744 -0.7439381 -0.039252724 0.58437806
0.5705735 0.2212714 -0.7593888 -0.13422373 4.4557543 0.1380534 -0.0020910508 -0.8922783
-0.25083882 0.57718647 -0.2813503 0.0014758201 -1.4900581 1.153753 -0.08938509 0.02562337
0.46103722 -0.070985 0.89845866 0.23139602 -0.35376388 0.03137691 0.9866033 -0.9847283
-0.15343644 1.6422976 0.13496777 1.2523991 0.1270777 -0.35727328 7.912384e-05 -0.13565698
-0.13853094 -0.06708427 0.043958843 0.16646591 -0.092891976 0.13304377 0.15927964 -1.4888402
-0.19975509 -0.14683463 0.21749406 0.06132109 -0.02968618 0.12514482 0.3722071 0.91206807
-0.46063575 0.25243917 -0.13904367 0.30793902 -0.16247949 0.60329586 0.0699517 -0.6455313
-0.2506236 0.13830681 0.73570603 0.09451337 0.015213903 0.28121787 2.0038285 0.3870055
00000000: 8b57 c4bd 621d fabe dd1f e73e edbd 96bf
00000010: 3529 72be 69c6 abbe a73a dfbe 95bb 493d
00000020: f23e b4bd 63fb 3b3f 6283 c9bd 4f4d 613c
00000030: 7ffc 213d ba72 3ebf 77c7 20bd cd99 153f
00000040: 1b11 123f f894 623e 4e67 42bf f271 09be
00000050: 8a95 8e40 df5d 0d3e 030a 09bb 5a6c 64bf
00000060: f26d 80be 7ec2 133f 260d 90be 4e70 c13a
00000070: 39ba bebf 2eae 933f 880f b7bd 1ae8 d13c
00000080: 120d ec3e 9560 91bd 6301 663f 14f3 6c3e
00000090: 8a20 b5be 1385 003d 0992 7c3f 2717 7cbf
000000a0: 711e 1dbe cf36 d23f fe34 0a3e 9d4e a03f
000000b0: a820 023e 86ec b6be 4aef a538 aae9 0abe
000000c0: 0edb 0dbe 7a63 89bd 300e 343d 0a76 2a3e
000000d0: 263e bebd a03c 083e 341a 233e 5192 bebf
000000e0: 998c 4cbe d15b 16be c3b6 5e3e d32b 7b3d
000000f0: 6f30 f3bc f725 003e ee91 be3e 4b7d 693f
00000100: 73d8 ebbe b53f 813e 7761 0ebe 2faa 9d3e
00000110: 0661 26be 9971 1a3f d642 8f3d 8a41 25bf
00000120: bd51 80be 4da0 0d3e 3b57 3c3f 3a90 c13d
00000130: bc43 793c cafb 8f3e ba3e 0040 9625 c63e

bias_hh_l0 f4 [80]
0.1881529 -0.38974538 0.45369947 -0.870408 0.07672683 -0.5326637 -0.46756834 0.20056148
0.13653263 0.9474527 -0.0603327 -0.30595717 0.30813998 -0.56515115 -0.034923587 0.55193204
0.58122957 0.24735579 -0.73774594 -0.17085801 4.52251 0.119207814 0.2052155 -0.8648954
0.05464978 0.5498129 -0.3998068 -0.1835998 -1.3184768 0.94343066 -0.11146456 -0.16607097
0.36492258 -0.23315516 0.896458 -0.0067309546 -0.1518245 0.27803597 0.90618396 -0.97939694
-0.13684635 1.2899303 -0.04956366 1.1863456 0.14168009 -0.41030473 -0.15910974 -0.080019094
-0.077657424 -0.27395397 0.06538461 0.19219011 0.026590094 -0.17927977 -0.22483417 -1.5404806
0.0013917504 0.10773317 0.45996776 0.07837537 -0.21828529 -0.07113489 0.08969871 0.7638046
-0.29110786 0.31899944 0.094504915 0.45592487 -0.46607754 0.65953356 0.40718397 -0.566391
-0.2323818 0.040290896 1.0741506 -0.17148189 0.20694326 0.15572467 1.8008709 0.5320841
00000000: 27ab 403e b58c c7be 4c4b e83e 0fd3 5ebf
00000010: f522 9d3d a65c 08bf 1e65 efbe fd5f 4d3e
00000020: 36cf 0b3e 438c 723f 6c1f 77bd 6ba6 9cbe
00000030: 86c4 9d3e bfad 10bf 090c 0fbd 6b4b 0d3f
00000040: 76cb 143f d64a 7d3e ebdc 3cbf 67f5 2ebe
00000050: 67b8 9040 3a23 f43d 0324 523e c969 5dbf
00000060: 73d8 5f3d 8ac0 0c3f 7ab3 ccbe 9601 3cbe
00000070: d9c3 a8bf ac84 713f 8847 e4bd 820e 2abe
00000080: 22d7 ba3e 3ac0 6ebe 467e 653f 578f dcbb
00000090: e277 1bbe bb5a 8e3e acfb 673f c2b9 7abf
000000a0: 7321 0cbe 701c a53f 4403 4bbd 2cda 973f
000000b0: 9614 113e 7613 d2be aaed 22be 0de1 a3bd
000000c0: db0a 9fbd b243 8cbe 5ee8 853d 7ccd 443e
000000d0: 78d3 d93c 1e95 37be ee3a 66be 782e c5bf
000000e0: 656b b63a 35a3 dc3d e580 eb3e 4483 a03d
000000f0: 2e86 5fbe 2baf 91bd f5b3 b73d b388 433f
00000100: 170c 95be e553 a33e cb8b c13d fc6e e93e
00000110: b7a1 eebe 31d7 283f 6b7a d03e 00ff 10bf
00000120: 7ff5 6dbe 1108 253d c47d 893f f398 2fbe
00000130: efe8 533e 4a76 1f3e f082 e63f aa36 083f
